{"format": "graph-model", "generatedBy": "2.0.0-dev20190603", "convertedBy": "TensorFlow.js Converter v1.1.2", "modelTopology": {"node": [{"name": "sub_2", "op": "Placeholder", "attr": {"dtype": {"type": "DT_FLOAT"}, "shape": {"shape": {"dim": [{"size": "1"}, {"size": "-1"}, {"size": "-1"}, {"size": "3"}]}}}}, {"name": "MobilenetV1/offset_2/Conv2D_bias", "op": "Const", "attr": {"value": {"tensor": {"dtype": "DT_FLOAT", "tensorShape": {"dim": [{"size": "34"}]}}}, "dtype": {"type": "DT_FLOAT"}}}, {"name": "MobilenetV1/offset_2/weights", "op": "Const", "attr": {"value": {"tensor": {"dtype": "DT_FLOAT", "tensorShape": {"dim": [{"size": "1"}, {"size": "1"}, {"size": "256"}, {"size": "34"}]}}}, "dtype": {"type": "DT_FLOAT"}}}, {"name": "MobilenetV1/MobilenetV1/Conv2d_13_pointwise/Conv2D_bias", "op": "Const", "attr": {"value": {"tensor": {"dtype": "DT_FLOAT", "tensorShape": {"dim": [{"size": "256"}]}}}, "dtype": {"type": "DT_FLOAT"}}}, {"name": "MobilenetV1/Conv2d_13_pointwise/weights", "op": "Const", "attr": {"dtype": {"type": "DT_FLOAT"}, "value": {"tensor": {"dtype": "DT_FLOAT", "tensorShape": {"dim": [{"size": "1"}, {"size": "1"}, {"size": "256"}, {"size": "256"}]}}}}}, {"name": "MobilenetV1/MobilenetV1/Conv2d_13_depthwise/depthwise_bias", "op": "Const", "attr": {"dtype": {"type": "DT_FLOAT"}, "value": {"tensor": {"dtype": "DT_FLOAT", "tensorShape": {"dim": [{"size": "256"}]}}}}}, {"name": "MobilenetV1/Conv2d_13_depthwise/depthwise_weights", "op": "Const", "attr": {"dtype": {"type": "DT_FLOAT"}, "value": {"tensor": {"dtype": "DT_FLOAT", "tensorShape": {"dim": [{"size": "3"}, {"size": "3"}, {"size": "256"}, {"size": "1"}]}}}}}, {"name": "MobilenetV1/MobilenetV1/Conv2d_12_pointwise/Conv2D_bias", "op": "Const", "attr": {"value": {"tensor": {"dtype": "DT_FLOAT", "tensorShape": {"dim": [{"size": "256"}]}}}, "dtype": {"type": "DT_FLOAT"}}}, {"name": "MobilenetV1/Conv2d_12_pointwise/weights", "op": "Const", "attr": {"value": {"tensor": {"dtype": "DT_FLOAT", "tensorShape": {"dim": [{"size": "1"}, {"size": "1"}, {"size": "256"}, {"size": "256"}]}}}, "dtype": {"type": "DT_FLOAT"}}}, {"name": "MobilenetV1/MobilenetV1/Conv2d_12_depthwise/depthwise_bias", "op": "Const", "attr": {"value": {"tensor": {"dtype": "DT_FLOAT", "tensorShape": {"dim": [{"size": "256"}]}}}, "dtype": {"type": "DT_FLOAT"}}}, {"name": "MobilenetV1/Conv2d_12_depthwise/depthwise_weights", "op": "Const", "attr": {"value": {"tensor": {"dtype": "DT_FLOAT", "tensorShape": {"dim": [{"size": "3"}, {"size": "3"}, {"size": "256"}, {"size": "1"}]}}}, "dtype": {"type": "DT_FLOAT"}}}, {"name": "MobilenetV1/MobilenetV1/Conv2d_11_pointwise/Conv2D_bias", "op": "Const", "attr": {"value": {"tensor": {"dtype": "DT_FLOAT", "tensorShape": {"dim": [{"size": "256"}]}}}, "dtype": {"type": "DT_FLOAT"}}}, {"name": "MobilenetV1/Conv2d_11_pointwise/weights", "op": "Const", "attr": {"dtype": {"type": "DT_FLOAT"}, "value": {"tensor": {"dtype": "DT_FLOAT", "tensorShape": {"dim": [{"size": "1"}, {"size": "1"}, {"size": "256"}, {"size": "256"}]}}}}}, {"name": "MobilenetV1/MobilenetV1/Conv2d_11_depthwise/depthwise_bias", "op": "Const", "attr": {"value": {"tensor": {"dtype": "DT_FLOAT", "tensorShape": {"dim": [{"size": "256"}]}}}, "dtype": {"type": "DT_FLOAT"}}}, {"name": "MobilenetV1/Conv2d_11_depthwise/depthwise_weights", "op": "Const", "attr": {"value": {"tensor": {"dtype": "DT_FLOAT", "tensorShape": {"dim": [{"size": "3"}, {"size": "3"}, {"size": "256"}, {"size": "1"}]}}}, "dtype": {"type": "DT_FLOAT"}}}, {"name": "MobilenetV1/MobilenetV1/Conv2d_10_pointwise/Conv2D_bias", "op": "Const", "attr": {"dtype": {"type": "DT_FLOAT"}, "value": {"tensor": {"dtype": "DT_FLOAT", "tensorShape": {"dim": [{"size": "256"}]}}}}}, {"name": "MobilenetV1/Conv2d_10_pointwise/weights", "op": "Const", "attr": {"value": {"tensor": {"dtype": "DT_FLOAT", "tensorShape": {"dim": [{"size": "1"}, {"size": "1"}, {"size": "256"}, {"size": "256"}]}}}, "dtype": {"type": "DT_FLOAT"}}}, {"name": "MobilenetV1/MobilenetV1/Conv2d_10_depthwise/depthwise_bias", "op": "Const", "attr": {"value": {"tensor": {"dtype": "DT_FLOAT", "tensorShape": {"dim": [{"size": "256"}]}}}, "dtype": {"type": "DT_FLOAT"}}}, {"name": "MobilenetV1/Conv2d_10_depthwise/depthwise_weights", "op": "Const", "attr": {"value": {"tensor": {"dtype": "DT_FLOAT", "tensorShape": {"dim": [{"size": "3"}, {"size": "3"}, {"size": "256"}, {"size": "1"}]}}}, "dtype": {"type": "DT_FLOAT"}}}, {"name": "MobilenetV1/MobilenetV1/Conv2d_9_pointwise/Conv2D_bias", "op": "Const", "attr": {"value": {"tensor": {"dtype": "DT_FLOAT", "tensorShape": {"dim": [{"size": "256"}]}}}, "dtype": {"type": "DT_FLOAT"}}}, {"name": "MobilenetV1/Conv2d_9_pointwise/weights", "op": "Const", "attr": {"value": {"tensor": {"dtype": "DT_FLOAT", "tensorShape": {"dim": [{"size": "1"}, {"size": "1"}, {"size": "256"}, {"size": "256"}]}}}, "dtype": {"type": "DT_FLOAT"}}}, {"name": "MobilenetV1/MobilenetV1/Conv2d_9_depthwise/depthwise_bias", "op": "Const", "attr": {"value": {"tensor": {"dtype": "DT_FLOAT", "tensorShape": {"dim": [{"size": "256"}]}}}, "dtype": {"type": "DT_FLOAT"}}}, {"name": "MobilenetV1/Conv2d_9_depthwise/depthwise_weights", "op": "Const", "attr": {"value": {"tensor": {"dtype": "DT_FLOAT", "tensorShape": {"dim": [{"size": "3"}, {"size": "3"}, {"size": "256"}, {"size": "1"}]}}}, "dtype": {"type": "DT_FLOAT"}}}, {"name": "MobilenetV1/MobilenetV1/Conv2d_8_pointwise/Conv2D_bias", "op": "Const", "attr": {"value": {"tensor": {"dtype": "DT_FLOAT", "tensorShape": {"dim": [{"size": "256"}]}}}, "dtype": {"type": "DT_FLOAT"}}}, {"name": "MobilenetV1/Conv2d_8_pointwise/weights", "op": "Const", "attr": {"dtype": {"type": "DT_FLOAT"}, "value": {"tensor": {"dtype": "DT_FLOAT", "tensorShape": {"dim": [{"size": "1"}, {"size": "1"}, {"size": "256"}, {"size": "256"}]}}}}}, {"name": "MobilenetV1/MobilenetV1/Conv2d_8_depthwise/depthwise_bias", "op": "Const", "attr": {"value": {"tensor": {"dtype": "DT_FLOAT", "tensorShape": {"dim": [{"size": "256"}]}}}, "dtype": {"type": "DT_FLOAT"}}}, {"name": "MobilenetV1/Conv2d_8_depthwise/depthwise_weights", "op": "Const", "attr": {"dtype": {"type": "DT_FLOAT"}, "value": {"tensor": {"dtype": "DT_FLOAT", "tensorShape": {"dim": [{"size": "3"}, {"size": "3"}, {"size": "256"}, {"size": "1"}]}}}}}, {"name": "MobilenetV1/MobilenetV1/Conv2d_7_pointwise/Conv2D_bias", "op": "Const", "attr": {"value": {"tensor": {"dtype": "DT_FLOAT", "tensorShape": {"dim": [{"size": "256"}]}}}, "dtype": {"type": "DT_FLOAT"}}}, {"name": "MobilenetV1/Conv2d_7_pointwise/weights", "op": "Const", "attr": {"value": {"tensor": {"dtype": "DT_FLOAT", "tensorShape": {"dim": [{"size": "1"}, {"size": "1"}, {"size": "256"}, {"size": "256"}]}}}, "dtype": {"type": "DT_FLOAT"}}}, {"name": "MobilenetV1/MobilenetV1/Conv2d_7_depthwise/depthwise_bias", "op": "Const", "attr": {"dtype": {"type": "DT_FLOAT"}, "value": {"tensor": {"dtype": "DT_FLOAT", "tensorShape": {"dim": [{"size": "256"}]}}}}}, {"name": "MobilenetV1/Conv2d_7_depthwise/depthwise_weights", "op": "Const", "attr": {"value": {"tensor": {"dtype": "DT_FLOAT", "tensorShape": {"dim": [{"size": "3"}, {"size": "3"}, {"size": "256"}, {"size": "1"}]}}}, "dtype": {"type": "DT_FLOAT"}}}, {"name": "MobilenetV1/MobilenetV1/Conv2d_6_pointwise/Conv2D_bias", "op": "Const", "attr": {"value": {"tensor": {"dtype": "DT_FLOAT", "tensorShape": {"dim": [{"size": "256"}]}}}, "dtype": {"type": "DT_FLOAT"}}}, {"name": "MobilenetV1/Conv2d_6_pointwise/weights", "op": "Const", "attr": {"dtype": {"type": "DT_FLOAT"}, "value": {"tensor": {"dtype": "DT_FLOAT", "tensorShape": {"dim": [{"size": "1"}, {"size": "1"}, {"size": "128"}, {"size": "256"}]}}}}}, {"name": "MobilenetV1/MobilenetV1/Conv2d_6_depthwise/depthwise_bias", "op": "Const", "attr": {"value": {"tensor": {"dtype": "DT_FLOAT", "tensorShape": {"dim": [{"size": "128"}]}}}, "dtype": {"type": "DT_FLOAT"}}}, {"name": "MobilenetV1/Conv2d_6_depthwise/depthwise_weights", "op": "Const", "attr": {"value": {"tensor": {"dtype": "DT_FLOAT", "tensorShape": {"dim": [{"size": "3"}, {"size": "3"}, {"size": "128"}, {"size": "1"}]}}}, "dtype": {"type": "DT_FLOAT"}}}, {"name": "MobilenetV1/MobilenetV1/Conv2d_5_pointwise/Conv2D_bias", "op": "Const", "attr": {"value": {"tensor": {"dtype": "DT_FLOAT", "tensorShape": {"dim": [{"size": "128"}]}}}, "dtype": {"type": "DT_FLOAT"}}}, {"name": "MobilenetV1/Conv2d_5_pointwise/weights", "op": "Const", "attr": {"value": {"tensor": {"dtype": "DT_FLOAT", "tensorShape": {"dim": [{"size": "1"}, {"size": "1"}, {"size": "128"}, {"size": "128"}]}}}, "dtype": {"type": "DT_FLOAT"}}}, {"name": "MobilenetV1/MobilenetV1/Conv2d_5_depthwise/depthwise_bias", "op": "Const", "attr": {"value": {"tensor": {"dtype": "DT_FLOAT", "tensorShape": {"dim": [{"size": "128"}]}}}, "dtype": {"type": "DT_FLOAT"}}}, {"name": "MobilenetV1/Conv2d_5_depthwise/depthwise_weights", "op": "Const", "attr": {"value": {"tensor": {"dtype": "DT_FLOAT", "tensorShape": {"dim": [{"size": "3"}, {"size": "3"}, {"size": "128"}, {"size": "1"}]}}}, "dtype": {"type": "DT_FLOAT"}}}, {"name": "MobilenetV1/MobilenetV1/Conv2d_4_pointwise/Conv2D_bias", "op": "Const", "attr": {"value": {"tensor": {"dtype": "DT_FLOAT", "tensorShape": {"dim": [{"size": "128"}]}}}, "dtype": {"type": "DT_FLOAT"}}}, {"name": "MobilenetV1/Conv2d_4_pointwise/weights", "op": "Const", "attr": {"value": {"tensor": {"dtype": "DT_FLOAT", "tensorShape": {"dim": [{"size": "1"}, {"size": "1"}, {"size": "64"}, {"size": "128"}]}}}, "dtype": {"type": "DT_FLOAT"}}}, {"name": "MobilenetV1/MobilenetV1/Conv2d_4_depthwise/depthwise_bias", "op": "Const", "attr": {"value": {"tensor": {"dtype": "DT_FLOAT", "tensorShape": {"dim": [{"size": "64"}]}}}, "dtype": {"type": "DT_FLOAT"}}}, {"name": "MobilenetV1/Conv2d_4_depthwise/depthwise_weights", "op": "Const", "attr": {"value": {"tensor": {"dtype": "DT_FLOAT", "tensorShape": {"dim": [{"size": "3"}, {"size": "3"}, {"size": "64"}, {"size": "1"}]}}}, "dtype": {"type": "DT_FLOAT"}}}, {"name": "MobilenetV1/MobilenetV1/Conv2d_3_pointwise/Conv2D_bias", "op": "Const", "attr": {"value": {"tensor": {"dtype": "DT_FLOAT", "tensorShape": {"dim": [{"size": "64"}]}}}, "dtype": {"type": "DT_FLOAT"}}}, {"name": "MobilenetV1/Conv2d_3_pointwise/weights", "op": "Const", "attr": {"value": {"tensor": {"dtype": "DT_FLOAT", "tensorShape": {"dim": [{"size": "1"}, {"size": "1"}, {"size": "64"}, {"size": "64"}]}}}, "dtype": {"type": "DT_FLOAT"}}}, {"name": "MobilenetV1/MobilenetV1/Conv2d_3_depthwise/depthwise_bias", "op": "Const", "attr": {"value": {"tensor": {"dtype": "DT_FLOAT", "tensorShape": {"dim": [{"size": "64"}]}}}, "dtype": {"type": "DT_FLOAT"}}}, {"name": "MobilenetV1/Conv2d_3_depthwise/depthwise_weights", "op": "Const", "attr": {"value": {"tensor": {"dtype": "DT_FLOAT", "tensorShape": {"dim": [{"size": "3"}, {"size": "3"}, {"size": "64"}, {"size": "1"}]}}}, "dtype": {"type": "DT_FLOAT"}}}, {"name": "MobilenetV1/MobilenetV1/Conv2d_2_pointwise/Conv2D_bias", "op": "Const", "attr": {"value": {"tensor": {"dtype": "DT_FLOAT", "tensorShape": {"dim": [{"size": "64"}]}}}, "dtype": {"type": "DT_FLOAT"}}}, {"name": "MobilenetV1/Conv2d_2_pointwise/weights", "op": "Const", "attr": {"value": {"tensor": {"dtype": "DT_FLOAT", "tensorShape": {"dim": [{"size": "1"}, {"size": "1"}, {"size": "32"}, {"size": "64"}]}}}, "dtype": {"type": "DT_FLOAT"}}}, {"name": "MobilenetV1/MobilenetV1/Conv2d_2_depthwise/depthwise_bias", "op": "Const", "attr": {"value": {"tensor": {"dtype": "DT_FLOAT", "tensorShape": {"dim": [{"size": "32"}]}}}, "dtype": {"type": "DT_FLOAT"}}}, {"name": "MobilenetV1/Conv2d_2_depthwise/depthwise_weights", "op": "Const", "attr": {"value": {"tensor": {"dtype": "DT_FLOAT", "tensorShape": {"dim": [{"size": "3"}, {"size": "3"}, {"size": "32"}, {"size": "1"}]}}}, "dtype": {"type": "DT_FLOAT"}}}, {"name": "MobilenetV1/MobilenetV1/Conv2d_1_pointwise/Conv2D_bias", "op": "Const", "attr": {"value": {"tensor": {"dtype": "DT_FLOAT", "tensorShape": {"dim": [{"size": "32"}]}}}, "dtype": {"type": "DT_FLOAT"}}}, {"name": "MobilenetV1/Conv2d_1_pointwise/weights", "op": "Const", "attr": {"value": {"tensor": {"dtype": "DT_FLOAT", "tensorShape": {"dim": [{"size": "1"}, {"size": "1"}, {"size": "16"}, {"size": "32"}]}}}, "dtype": {"type": "DT_FLOAT"}}}, {"name": "MobilenetV1/MobilenetV1/Conv2d_1_depthwise/depthwise_bias", "op": "Const", "attr": {"value": {"tensor": {"dtype": "DT_FLOAT", "tensorShape": {"dim": [{"size": "16"}]}}}, "dtype": {"type": "DT_FLOAT"}}}, {"name": "MobilenetV1/Conv2d_1_depthwise/depthwise_weights", "op": "Const", "attr": {"value": {"tensor": {"dtype": "DT_FLOAT", "tensorShape": {"dim": [{"size": "3"}, {"size": "3"}, {"size": "16"}, {"size": "1"}]}}}, "dtype": {"type": "DT_FLOAT"}}}, {"name": "MobilenetV1/MobilenetV1/Conv2d_0/Conv2D_bias", "op": "Const", "attr": {"value": {"tensor": {"dtype": "DT_FLOAT", "tensorShape": {"dim": [{"size": "16"}]}}}, "dtype": {"type": "DT_FLOAT"}}}, {"name": "MobilenetV1/Conv2d_0/weights", "op": "Const", "attr": {"value": {"tensor": {"dtype": "DT_FLOAT", "tensorShape": {"dim": [{"size": "3"}, {"size": "3"}, {"size": "3"}, {"size": "16"}]}}}, "dtype": {"type": "DT_FLOAT"}}}, {"name": "MobilenetV1/heatmap_2/Conv2D_bias", "op": "Const", "attr": {"dtype": {"type": "DT_FLOAT"}, "value": {"tensor": {"dtype": "DT_FLOAT", "tensorShape": {"dim": [{"size": "17"}]}}}}}, {"name": "MobilenetV1/heatmap_2/weights", "op": "Const", "attr": {"value": {"tensor": {"dtype": "DT_FLOAT", "tensorShape": {"dim": [{"size": "1"}, {"size": "1"}, {"size": "256"}, {"size": "17"}]}}}, "dtype": {"type": "DT_FLOAT"}}}, {"name": "MobilenetV1/displacement_fwd_2/Conv2D_bias", "op": "Const", "attr": {"value": {"tensor": {"dtype": "DT_FLOAT", "tensorShape": {"dim": [{"size": "32"}]}}}, "dtype": {"type": "DT_FLOAT"}}}, {"name": "MobilenetV1/displacement_fwd_2/weights", "op": "Const", "attr": {"value": {"tensor": {"dtype": "DT_FLOAT", "tensorShape": {"dim": [{"size": "1"}, {"size": "1"}, {"size": "256"}, {"size": "32"}]}}}, "dtype": {"type": "DT_FLOAT"}}}, {"name": "MobilenetV1/displacement_bwd_2/Conv2D_bias", "op": "Const", "attr": {"value": {"tensor": {"dtype": "DT_FLOAT", "tensorShape": {"dim": [{"size": "32"}]}}}, "dtype": {"type": "DT_FLOAT"}}}, {"name": "MobilenetV1/displacement_bwd_2/weights", "op": "Const", "attr": {"value": {"tensor": {"dtype": "DT_FLOAT", "tensorShape": {"dim": [{"size": "1"}, {"size": "1"}, {"size": "256"}, {"size": "32"}]}}}, "dtype": {"type": "DT_FLOAT"}}}, {"name": "MobilenetV1/MobilenetV1/Conv2d_0/BatchNorm/batchnorm/add_1/conv", "op": "Conv2D", "input": ["sub_2", "MobilenetV1/Conv2d_0/weights"], "attr": {"T": {"type": "DT_FLOAT"}, "data_format": {"s": "TkhXQw=="}, "strides": {"list": {"i": ["1", "2", "2", "1"]}}, "use_cudnn_on_gpu": {"b": true}, "explicit_paddings": {"list": {}}, "padding": {"s": "U0FNRQ=="}, "dilations": {"list": {"i": ["1", "1", "1", "1"]}}}}, {"name": "MobilenetV1/MobilenetV1/Conv2d_0/BatchNorm/batchnorm/add_1", "op": "BiasAdd", "input": ["MobilenetV1/MobilenetV1/Conv2d_0/BatchNorm/batchnorm/add_1/conv", "MobilenetV1/MobilenetV1/Conv2d_0/Conv2D_bias"], "attr": {"T": {"type": "DT_FLOAT"}, "data_format": {"s": "TkhXQw=="}}}, {"name": "MobilenetV1/MobilenetV1/Conv2d_0/Relu6", "op": "Relu6", "input": ["MobilenetV1/MobilenetV1/Conv2d_0/BatchNorm/batchnorm/add_1"], "attr": {"T": {"type": "DT_FLOAT"}}}, {"name": "MobilenetV1/MobilenetV1/Conv2d_1_depthwise/BatchNorm/batchnorm/add_1/conv", "op": "DepthwiseConv2dNative", "input": ["MobilenetV1/MobilenetV1/Conv2d_0/Relu6", "MobilenetV1/Conv2d_1_depthwise/depthwise_weights"], "attr": {"data_format": {"s": "TkhXQw=="}, "strides": {"list": {"i": ["1", "1", "1", "1"]}}, "padding": {"s": "U0FNRQ=="}, "dilations": {"list": {"i": ["1", "1", "1", "1"]}}, "T": {"type": "DT_FLOAT"}}}, {"name": "MobilenetV1/MobilenetV1/Conv2d_1_depthwise/BatchNorm/batchnorm/add_1", "op": "BiasAdd", "input": ["MobilenetV1/MobilenetV1/Conv2d_1_depthwise/BatchNorm/batchnorm/add_1/conv", "MobilenetV1/MobilenetV1/Conv2d_1_depthwise/depthwise_bias"], "attr": {"T": {"type": "DT_FLOAT"}, "data_format": {"s": "TkhXQw=="}}}, {"name": "MobilenetV1/MobilenetV1/Conv2d_1_depthwise/Relu6", "op": "Relu6", "input": ["MobilenetV1/MobilenetV1/Conv2d_1_depthwise/BatchNorm/batchnorm/add_1"], "attr": {"T": {"type": "DT_FLOAT"}}}, {"name": "MobilenetV1/MobilenetV1/Conv2d_1_pointwise/BatchNorm/batchnorm/add_1/conv", "op": "Conv2D", "input": ["MobilenetV1/MobilenetV1/Conv2d_1_depthwise/Relu6", "MobilenetV1/Conv2d_1_pointwise/weights"], "attr": {"dilations": {"list": {"i": ["1", "1", "1", "1"]}}, "T": {"type": "DT_FLOAT"}, "strides": {"list": {"i": ["1", "1", "1", "1"]}}, "data_format": {"s": "TkhXQw=="}, "use_cudnn_on_gpu": {"b": true}, "explicit_paddings": {"list": {}}, "padding": {"s": "U0FNRQ=="}}}, {"name": "MobilenetV1/MobilenetV1/Conv2d_1_pointwise/BatchNorm/batchnorm/add_1", "op": "BiasAdd", "input": ["MobilenetV1/MobilenetV1/Conv2d_1_pointwise/BatchNorm/batchnorm/add_1/conv", "MobilenetV1/MobilenetV1/Conv2d_1_pointwise/Conv2D_bias"], "attr": {"T": {"type": "DT_FLOAT"}, "data_format": {"s": "TkhXQw=="}}}, {"name": "MobilenetV1/MobilenetV1/Conv2d_1_pointwise/Relu6", "op": "Relu6", "input": ["MobilenetV1/MobilenetV1/Conv2d_1_pointwise/BatchNorm/batchnorm/add_1"], "attr": {"T": {"type": "DT_FLOAT"}}}, {"name": "MobilenetV1/MobilenetV1/Conv2d_2_depthwise/BatchNorm/batchnorm/add_1/conv", "op": "DepthwiseConv2dNative", "input": ["MobilenetV1/MobilenetV1/Conv2d_1_pointwise/Relu6", "MobilenetV1/Conv2d_2_depthwise/depthwise_weights"], "attr": {"strides": {"list": {"i": ["1", "2", "2", "1"]}}, "data_format": {"s": "TkhXQw=="}, "padding": {"s": "U0FNRQ=="}, "dilations": {"list": {"i": ["1", "1", "1", "1"]}}, "T": {"type": "DT_FLOAT"}}}, {"name": "MobilenetV1/MobilenetV1/Conv2d_2_depthwise/BatchNorm/batchnorm/add_1", "op": "BiasAdd", "input": ["MobilenetV1/MobilenetV1/Conv2d_2_depthwise/BatchNorm/batchnorm/add_1/conv", "MobilenetV1/MobilenetV1/Conv2d_2_depthwise/depthwise_bias"], "attr": {"data_format": {"s": "TkhXQw=="}, "T": {"type": "DT_FLOAT"}}}, {"name": "MobilenetV1/MobilenetV1/Conv2d_2_depthwise/Relu6", "op": "Relu6", "input": ["MobilenetV1/MobilenetV1/Conv2d_2_depthwise/BatchNorm/batchnorm/add_1"], "attr": {"T": {"type": "DT_FLOAT"}}}, {"name": "MobilenetV1/MobilenetV1/Conv2d_2_pointwise/BatchNorm/batchnorm/add_1/conv", "op": "Conv2D", "input": ["MobilenetV1/MobilenetV1/Conv2d_2_depthwise/Relu6", "MobilenetV1/Conv2d_2_pointwise/weights"], "attr": {"dilations": {"list": {"i": ["1", "1", "1", "1"]}}, "T": {"type": "DT_FLOAT"}, "data_format": {"s": "TkhXQw=="}, "strides": {"list": {"i": ["1", "1", "1", "1"]}}, "use_cudnn_on_gpu": {"b": true}, "explicit_paddings": {"list": {}}, "padding": {"s": "U0FNRQ=="}}}, {"name": "MobilenetV1/MobilenetV1/Conv2d_2_pointwise/BatchNorm/batchnorm/add_1", "op": "BiasAdd", "input": ["MobilenetV1/MobilenetV1/Conv2d_2_pointwise/BatchNorm/batchnorm/add_1/conv", "MobilenetV1/MobilenetV1/Conv2d_2_pointwise/Conv2D_bias"], "attr": {"T": {"type": "DT_FLOAT"}, "data_format": {"s": "TkhXQw=="}}}, {"name": "MobilenetV1/MobilenetV1/Conv2d_2_pointwise/Relu6", "op": "Relu6", "input": ["MobilenetV1/MobilenetV1/Conv2d_2_pointwise/BatchNorm/batchnorm/add_1"], "attr": {"T": {"type": "DT_FLOAT"}}}, {"name": "MobilenetV1/MobilenetV1/Conv2d_3_depthwise/BatchNorm/batchnorm/add_1/conv", "op": "DepthwiseConv2dNative", "input": ["MobilenetV1/MobilenetV1/Conv2d_2_pointwise/Relu6", "MobilenetV1/Conv2d_3_depthwise/depthwise_weights"], "attr": {"T": {"type": "DT_FLOAT"}, "data_format": {"s": "TkhXQw=="}, "strides": {"list": {"i": ["1", "1", "1", "1"]}}, "dilations": {"list": {"i": ["1", "1", "1", "1"]}}, "padding": {"s": "U0FNRQ=="}}}, {"name": "MobilenetV1/MobilenetV1/Conv2d_3_depthwise/BatchNorm/batchnorm/add_1", "op": "BiasAdd", "input": ["MobilenetV1/MobilenetV1/Conv2d_3_depthwise/BatchNorm/batchnorm/add_1/conv", "MobilenetV1/MobilenetV1/Conv2d_3_depthwise/depthwise_bias"], "attr": {"T": {"type": "DT_FLOAT"}, "data_format": {"s": "TkhXQw=="}}}, {"name": "MobilenetV1/MobilenetV1/Conv2d_3_depthwise/Relu6", "op": "Relu6", "input": ["MobilenetV1/MobilenetV1/Conv2d_3_depthwise/BatchNorm/batchnorm/add_1"], "attr": {"T": {"type": "DT_FLOAT"}}}, {"name": "MobilenetV1/MobilenetV1/Conv2d_3_pointwise/BatchNorm/batchnorm/add_1/conv", "op": "Conv2D", "input": ["MobilenetV1/MobilenetV1/Conv2d_3_depthwise/Relu6", "MobilenetV1/Conv2d_3_pointwise/weights"], "attr": {"strides": {"list": {"i": ["1", "1", "1", "1"]}}, "data_format": {"s": "TkhXQw=="}, "use_cudnn_on_gpu": {"b": true}, "explicit_paddings": {"list": {}}, "padding": {"s": "U0FNRQ=="}, "dilations": {"list": {"i": ["1", "1", "1", "1"]}}, "T": {"type": "DT_FLOAT"}}}, {"name": "MobilenetV1/MobilenetV1/Conv2d_3_pointwise/BatchNorm/batchnorm/add_1", "op": "BiasAdd", "input": ["MobilenetV1/MobilenetV1/Conv2d_3_pointwise/BatchNorm/batchnorm/add_1/conv", "MobilenetV1/MobilenetV1/Conv2d_3_pointwise/Conv2D_bias"], "attr": {"T": {"type": "DT_FLOAT"}, "data_format": {"s": "TkhXQw=="}}}, {"name": "MobilenetV1/MobilenetV1/Conv2d_3_pointwise/Relu6", "op": "Relu6", "input": ["MobilenetV1/MobilenetV1/Conv2d_3_pointwise/BatchNorm/batchnorm/add_1"], "attr": {"T": {"type": "DT_FLOAT"}}}, {"name": "MobilenetV1/MobilenetV1/Conv2d_4_depthwise/BatchNorm/batchnorm/add_1/conv", "op": "DepthwiseConv2dNative", "input": ["MobilenetV1/MobilenetV1/Conv2d_3_pointwise/Relu6", "MobilenetV1/Conv2d_4_depthwise/depthwise_weights"], "attr": {"data_format": {"s": "TkhXQw=="}, "strides": {"list": {"i": ["1", "2", "2", "1"]}}, "padding": {"s": "U0FNRQ=="}, "dilations": {"list": {"i": ["1", "1", "1", "1"]}}, "T": {"type": "DT_FLOAT"}}}, {"name": "MobilenetV1/MobilenetV1/Conv2d_4_depthwise/BatchNorm/batchnorm/add_1", "op": "BiasAdd", "input": ["MobilenetV1/MobilenetV1/Conv2d_4_depthwise/BatchNorm/batchnorm/add_1/conv", "MobilenetV1/MobilenetV1/Conv2d_4_depthwise/depthwise_bias"], "attr": {"T": {"type": "DT_FLOAT"}, "data_format": {"s": "TkhXQw=="}}}, {"name": "MobilenetV1/MobilenetV1/Conv2d_4_depthwise/Relu6", "op": "Relu6", "input": ["MobilenetV1/MobilenetV1/Conv2d_4_depthwise/BatchNorm/batchnorm/add_1"], "attr": {"T": {"type": "DT_FLOAT"}}}, {"name": "MobilenetV1/MobilenetV1/Conv2d_4_pointwise/BatchNorm/batchnorm/add_1/conv", "op": "Conv2D", "input": ["MobilenetV1/MobilenetV1/Conv2d_4_depthwise/Relu6", "MobilenetV1/Conv2d_4_pointwise/weights"], "attr": {"padding": {"s": "U0FNRQ=="}, "dilations": {"list": {"i": ["1", "1", "1", "1"]}}, "T": {"type": "DT_FLOAT"}, "strides": {"list": {"i": ["1", "1", "1", "1"]}}, "data_format": {"s": "TkhXQw=="}, "explicit_paddings": {"list": {}}, "use_cudnn_on_gpu": {"b": true}}}, {"name": "MobilenetV1/MobilenetV1/Conv2d_4_pointwise/BatchNorm/batchnorm/add_1", "op": "BiasAdd", "input": ["MobilenetV1/MobilenetV1/Conv2d_4_pointwise/BatchNorm/batchnorm/add_1/conv", "MobilenetV1/MobilenetV1/Conv2d_4_pointwise/Conv2D_bias"], "attr": {"T": {"type": "DT_FLOAT"}, "data_format": {"s": "TkhXQw=="}}}, {"name": "MobilenetV1/MobilenetV1/Conv2d_4_pointwise/Relu6", "op": "Relu6", "input": ["MobilenetV1/MobilenetV1/Conv2d_4_pointwise/BatchNorm/batchnorm/add_1"], "attr": {"T": {"type": "DT_FLOAT"}}}, {"name": "MobilenetV1/MobilenetV1/Conv2d_5_depthwise/BatchNorm/batchnorm/add_1/conv", "op": "DepthwiseConv2dNative", "input": ["MobilenetV1/MobilenetV1/Conv2d_4_pointwise/Relu6", "MobilenetV1/Conv2d_5_depthwise/depthwise_weights"], "attr": {"data_format": {"s": "TkhXQw=="}, "strides": {"list": {"i": ["1", "1", "1", "1"]}}, "dilations": {"list": {"i": ["1", "1", "1", "1"]}}, "padding": {"s": "U0FNRQ=="}, "T": {"type": "DT_FLOAT"}}}, {"name": "MobilenetV1/MobilenetV1/Conv2d_5_depthwise/BatchNorm/batchnorm/add_1", "op": "BiasAdd", "input": ["MobilenetV1/MobilenetV1/Conv2d_5_depthwise/BatchNorm/batchnorm/add_1/conv", "MobilenetV1/MobilenetV1/Conv2d_5_depthwise/depthwise_bias"], "attr": {"T": {"type": "DT_FLOAT"}, "data_format": {"s": "TkhXQw=="}}}, {"name": "MobilenetV1/MobilenetV1/Conv2d_5_depthwise/Relu6", "op": "Relu6", "input": ["MobilenetV1/MobilenetV1/Conv2d_5_depthwise/BatchNorm/batchnorm/add_1"], "attr": {"T": {"type": "DT_FLOAT"}}}, {"name": "MobilenetV1/MobilenetV1/Conv2d_5_pointwise/BatchNorm/batchnorm/add_1/conv", "op": "Conv2D", "input": ["MobilenetV1/MobilenetV1/Conv2d_5_depthwise/Relu6", "MobilenetV1/Conv2d_5_pointwise/weights"], "attr": {"padding": {"s": "U0FNRQ=="}, "dilations": {"list": {"i": ["1", "1", "1", "1"]}}, "T": {"type": "DT_FLOAT"}, "strides": {"list": {"i": ["1", "1", "1", "1"]}}, "data_format": {"s": "TkhXQw=="}, "use_cudnn_on_gpu": {"b": true}, "explicit_paddings": {"list": {}}}}, {"name": "MobilenetV1/MobilenetV1/Conv2d_5_pointwise/BatchNorm/batchnorm/add_1", "op": "BiasAdd", "input": ["MobilenetV1/MobilenetV1/Conv2d_5_pointwise/BatchNorm/batchnorm/add_1/conv", "MobilenetV1/MobilenetV1/Conv2d_5_pointwise/Conv2D_bias"], "attr": {"T": {"type": "DT_FLOAT"}, "data_format": {"s": "TkhXQw=="}}}, {"name": "MobilenetV1/MobilenetV1/Conv2d_5_pointwise/Relu6", "op": "Relu6", "input": ["MobilenetV1/MobilenetV1/Conv2d_5_pointwise/BatchNorm/batchnorm/add_1"], "attr": {"T": {"type": "DT_FLOAT"}}}, {"name": "MobilenetV1/MobilenetV1/Conv2d_6_depthwise/BatchNorm/batchnorm/add_1/conv", "op": "DepthwiseConv2dNative", "input": ["MobilenetV1/MobilenetV1/Conv2d_5_pointwise/Relu6", "MobilenetV1/Conv2d_6_depthwise/depthwise_weights"], "attr": {"padding": {"s": "U0FNRQ=="}, "dilations": {"list": {"i": ["1", "1", "1", "1"]}}, "T": {"type": "DT_FLOAT"}, "data_format": {"s": "TkhXQw=="}, "strides": {"list": {"i": ["1", "1", "1", "1"]}}}}, {"name": "MobilenetV1/MobilenetV1/Conv2d_6_depthwise/BatchNorm/batchnorm/add_1", "op": "BiasAdd", "input": ["MobilenetV1/MobilenetV1/Conv2d_6_depthwise/BatchNorm/batchnorm/add_1/conv", "MobilenetV1/MobilenetV1/Conv2d_6_depthwise/depthwise_bias"], "attr": {"data_format": {"s": "TkhXQw=="}, "T": {"type": "DT_FLOAT"}}}, {"name": "MobilenetV1/MobilenetV1/Conv2d_6_depthwise/Relu6", "op": "Relu6", "input": ["MobilenetV1/MobilenetV1/Conv2d_6_depthwise/BatchNorm/batchnorm/add_1"], "attr": {"T": {"type": "DT_FLOAT"}}}, {"name": "MobilenetV1/MobilenetV1/Conv2d_6_pointwise/BatchNorm/batchnorm/add_1/conv", "op": "Conv2D", "input": ["MobilenetV1/MobilenetV1/Conv2d_6_depthwise/Relu6", "MobilenetV1/Conv2d_6_pointwise/weights"], "attr": {"padding": {"s": "U0FNRQ=="}, "dilations": {"list": {"i": ["1", "1", "1", "1"]}}, "T": {"type": "DT_FLOAT"}, "strides": {"list": {"i": ["1", "1", "1", "1"]}}, "data_format": {"s": "TkhXQw=="}, "use_cudnn_on_gpu": {"b": true}, "explicit_paddings": {"list": {}}}}, {"name": "MobilenetV1/MobilenetV1/Conv2d_6_pointwise/BatchNorm/batchnorm/add_1", "op": "BiasAdd", "input": ["MobilenetV1/MobilenetV1/Conv2d_6_pointwise/BatchNorm/batchnorm/add_1/conv", "MobilenetV1/MobilenetV1/Conv2d_6_pointwise/Conv2D_bias"], "attr": {"T": {"type": "DT_FLOAT"}, "data_format": {"s": "TkhXQw=="}}}, {"name": "MobilenetV1/MobilenetV1/Conv2d_6_pointwise/Relu6", "op": "Relu6", "input": ["MobilenetV1/MobilenetV1/Conv2d_6_pointwise/BatchNorm/batchnorm/add_1"], "attr": {"T": {"type": "DT_FLOAT"}}}, {"name": "MobilenetV1/MobilenetV1/Conv2d_7_depthwise/BatchNorm/batchnorm/add_1/conv", "op": "DepthwiseConv2dNative", "input": ["MobilenetV1/MobilenetV1/Conv2d_6_pointwise/Relu6", "MobilenetV1/Conv2d_7_depthwise/depthwise_weights"], "attr": {"dilations": {"list": {"i": ["2", "2", "1", "1"]}}, "padding": {"s": "U0FNRQ=="}, "T": {"type": "DT_FLOAT"}, "data_format": {"s": "TkhXQw=="}, "strides": {"list": {"i": ["1", "1", "1", "1"]}}}}, {"name": "MobilenetV1/MobilenetV1/Conv2d_7_depthwise/BatchNorm/batchnorm/add_1", "op": "BiasAdd", "input": ["MobilenetV1/MobilenetV1/Conv2d_7_depthwise/BatchNorm/batchnorm/add_1/conv", "MobilenetV1/MobilenetV1/Conv2d_7_depthwise/depthwise_bias"], "attr": {"data_format": {"s": "TkhXQw=="}, "T": {"type": "DT_FLOAT"}}}, {"name": "MobilenetV1/MobilenetV1/Conv2d_7_depthwise/Relu6", "op": "Relu6", "input": ["MobilenetV1/MobilenetV1/Conv2d_7_depthwise/BatchNorm/batchnorm/add_1"], "attr": {"T": {"type": "DT_FLOAT"}}}, {"name": "MobilenetV1/MobilenetV1/Conv2d_7_pointwise/BatchNorm/batchnorm/add_1/conv", "op": "Conv2D", "input": ["MobilenetV1/MobilenetV1/Conv2d_7_depthwise/Relu6", "MobilenetV1/Conv2d_7_pointwise/weights"], "attr": {"dilations": {"list": {"i": ["1", "1", "1", "1"]}}, "T": {"type": "DT_FLOAT"}, "strides": {"list": {"i": ["1", "1", "1", "1"]}}, "data_format": {"s": "TkhXQw=="}, "explicit_paddings": {"list": {}}, "use_cudnn_on_gpu": {"b": true}, "padding": {"s": "U0FNRQ=="}}}, {"name": "MobilenetV1/MobilenetV1/Conv2d_7_pointwise/BatchNorm/batchnorm/add_1", "op": "BiasAdd", "input": ["MobilenetV1/MobilenetV1/Conv2d_7_pointwise/BatchNorm/batchnorm/add_1/conv", "MobilenetV1/MobilenetV1/Conv2d_7_pointwise/Conv2D_bias"], "attr": {"T": {"type": "DT_FLOAT"}, "data_format": {"s": "TkhXQw=="}}}, {"name": "MobilenetV1/MobilenetV1/Conv2d_7_pointwise/Relu6", "op": "Relu6", "input": ["MobilenetV1/MobilenetV1/Conv2d_7_pointwise/BatchNorm/batchnorm/add_1"], "attr": {"T": {"type": "DT_FLOAT"}}}, {"name": "MobilenetV1/MobilenetV1/Conv2d_8_depthwise/BatchNorm/batchnorm/add_1/conv", "op": "DepthwiseConv2dNative", "input": ["MobilenetV1/MobilenetV1/Conv2d_7_pointwise/Relu6", "MobilenetV1/Conv2d_8_depthwise/depthwise_weights"], "attr": {"T": {"type": "DT_FLOAT"}, "strides": {"list": {"i": ["1", "1", "1", "1"]}}, "data_format": {"s": "TkhXQw=="}, "padding": {"s": "U0FNRQ=="}, "dilations": {"list": {"i": ["2", "2", "1", "1"]}}}}, {"name": "MobilenetV1/MobilenetV1/Conv2d_8_depthwise/BatchNorm/batchnorm/add_1", "op": "BiasAdd", "input": ["MobilenetV1/MobilenetV1/Conv2d_8_depthwise/BatchNorm/batchnorm/add_1/conv", "MobilenetV1/MobilenetV1/Conv2d_8_depthwise/depthwise_bias"], "attr": {"T": {"type": "DT_FLOAT"}, "data_format": {"s": "TkhXQw=="}}}, {"name": "MobilenetV1/MobilenetV1/Conv2d_8_depthwise/Relu6", "op": "Relu6", "input": ["MobilenetV1/MobilenetV1/Conv2d_8_depthwise/BatchNorm/batchnorm/add_1"], "attr": {"T": {"type": "DT_FLOAT"}}}, {"name": "MobilenetV1/MobilenetV1/Conv2d_8_pointwise/BatchNorm/batchnorm/add_1/conv", "op": "Conv2D", "input": ["MobilenetV1/MobilenetV1/Conv2d_8_depthwise/Relu6", "MobilenetV1/Conv2d_8_pointwise/weights"], "attr": {"T": {"type": "DT_FLOAT"}, "data_format": {"s": "TkhXQw=="}, "strides": {"list": {"i": ["1", "1", "1", "1"]}}, "explicit_paddings": {"list": {}}, "use_cudnn_on_gpu": {"b": true}, "padding": {"s": "U0FNRQ=="}, "dilations": {"list": {"i": ["1", "1", "1", "1"]}}}}, {"name": "MobilenetV1/MobilenetV1/Conv2d_8_pointwise/BatchNorm/batchnorm/add_1", "op": "BiasAdd", "input": ["MobilenetV1/MobilenetV1/Conv2d_8_pointwise/BatchNorm/batchnorm/add_1/conv", "MobilenetV1/MobilenetV1/Conv2d_8_pointwise/Conv2D_bias"], "attr": {"data_format": {"s": "TkhXQw=="}, "T": {"type": "DT_FLOAT"}}}, {"name": "MobilenetV1/MobilenetV1/Conv2d_8_pointwise/Relu6", "op": "Relu6", "input": ["MobilenetV1/MobilenetV1/Conv2d_8_pointwise/BatchNorm/batchnorm/add_1"], "attr": {"T": {"type": "DT_FLOAT"}}}, {"name": "MobilenetV1/MobilenetV1/Conv2d_9_depthwise/BatchNorm/batchnorm/add_1/conv", "op": "DepthwiseConv2dNative", "input": ["MobilenetV1/MobilenetV1/Conv2d_8_pointwise/Relu6", "MobilenetV1/Conv2d_9_depthwise/depthwise_weights"], "attr": {"dilations": {"list": {"i": ["2", "2", "1", "1"]}}, "padding": {"s": "U0FNRQ=="}, "T": {"type": "DT_FLOAT"}, "strides": {"list": {"i": ["1", "1", "1", "1"]}}, "data_format": {"s": "TkhXQw=="}}}, {"name": "MobilenetV1/MobilenetV1/Conv2d_9_depthwise/BatchNorm/batchnorm/add_1", "op": "BiasAdd", "input": ["MobilenetV1/MobilenetV1/Conv2d_9_depthwise/BatchNorm/batchnorm/add_1/conv", "MobilenetV1/MobilenetV1/Conv2d_9_depthwise/depthwise_bias"], "attr": {"T": {"type": "DT_FLOAT"}, "data_format": {"s": "TkhXQw=="}}}, {"name": "MobilenetV1/MobilenetV1/Conv2d_9_depthwise/Relu6", "op": "Relu6", "input": ["MobilenetV1/MobilenetV1/Conv2d_9_depthwise/BatchNorm/batchnorm/add_1"], "attr": {"T": {"type": "DT_FLOAT"}}}, {"name": "MobilenetV1/MobilenetV1/Conv2d_9_pointwise/BatchNorm/batchnorm/add_1/conv", "op": "Conv2D", "input": ["MobilenetV1/MobilenetV1/Conv2d_9_depthwise/Relu6", "MobilenetV1/Conv2d_9_pointwise/weights"], "attr": {"strides": {"list": {"i": ["1", "1", "1", "1"]}}, "data_format": {"s": "TkhXQw=="}, "explicit_paddings": {"list": {}}, "use_cudnn_on_gpu": {"b": true}, "padding": {"s": "U0FNRQ=="}, "dilations": {"list": {"i": ["1", "1", "1", "1"]}}, "T": {"type": "DT_FLOAT"}}}, {"name": "MobilenetV1/MobilenetV1/Conv2d_9_pointwise/BatchNorm/batchnorm/add_1", "op": "BiasAdd", "input": ["MobilenetV1/MobilenetV1/Conv2d_9_pointwise/BatchNorm/batchnorm/add_1/conv", "MobilenetV1/MobilenetV1/Conv2d_9_pointwise/Conv2D_bias"], "attr": {"T": {"type": "DT_FLOAT"}, "data_format": {"s": "TkhXQw=="}}}, {"name": "MobilenetV1/MobilenetV1/Conv2d_9_pointwise/Relu6", "op": "Relu6", "input": ["MobilenetV1/MobilenetV1/Conv2d_9_pointwise/BatchNorm/batchnorm/add_1"], "attr": {"T": {"type": "DT_FLOAT"}}}, {"name": "MobilenetV1/MobilenetV1/Conv2d_10_depthwise/BatchNorm/batchnorm/add_1/conv", "op": "DepthwiseConv2dNative", "input": ["MobilenetV1/MobilenetV1/Conv2d_9_pointwise/Relu6", "MobilenetV1/Conv2d_10_depthwise/depthwise_weights"], "attr": {"padding": {"s": "U0FNRQ=="}, "dilations": {"list": {"i": ["2", "2", "1", "1"]}}, "T": {"type": "DT_FLOAT"}, "data_format": {"s": "TkhXQw=="}, "strides": {"list": {"i": ["1", "1", "1", "1"]}}}}, {"name": "MobilenetV1/MobilenetV1/Conv2d_10_depthwise/BatchNorm/batchnorm/add_1", "op": "BiasAdd", "input": ["MobilenetV1/MobilenetV1/Conv2d_10_depthwise/BatchNorm/batchnorm/add_1/conv", "MobilenetV1/MobilenetV1/Conv2d_10_depthwise/depthwise_bias"], "attr": {"T": {"type": "DT_FLOAT"}, "data_format": {"s": "TkhXQw=="}}}, {"name": "MobilenetV1/MobilenetV1/Conv2d_10_depthwise/Relu6", "op": "Relu6", "input": ["MobilenetV1/MobilenetV1/Conv2d_10_depthwise/BatchNorm/batchnorm/add_1"], "attr": {"T": {"type": "DT_FLOAT"}}}, {"name": "MobilenetV1/MobilenetV1/Conv2d_10_pointwise/BatchNorm/batchnorm/add_1/conv", "op": "Conv2D", "input": ["MobilenetV1/MobilenetV1/Conv2d_10_depthwise/Relu6", "MobilenetV1/Conv2d_10_pointwise/weights"], "attr": {"T": {"type": "DT_FLOAT"}, "data_format": {"s": "TkhXQw=="}, "strides": {"list": {"i": ["1", "1", "1", "1"]}}, "explicit_paddings": {"list": {}}, "use_cudnn_on_gpu": {"b": true}, "padding": {"s": "U0FNRQ=="}, "dilations": {"list": {"i": ["1", "1", "1", "1"]}}}}, {"name": "MobilenetV1/MobilenetV1/Conv2d_10_pointwise/BatchNorm/batchnorm/add_1", "op": "BiasAdd", "input": ["MobilenetV1/MobilenetV1/Conv2d_10_pointwise/BatchNorm/batchnorm/add_1/conv", "MobilenetV1/MobilenetV1/Conv2d_10_pointwise/Conv2D_bias"], "attr": {"data_format": {"s": "TkhXQw=="}, "T": {"type": "DT_FLOAT"}}}, {"name": "MobilenetV1/MobilenetV1/Conv2d_10_pointwise/Relu6", "op": "Relu6", "input": ["MobilenetV1/MobilenetV1/Conv2d_10_pointwise/BatchNorm/batchnorm/add_1"], "attr": {"T": {"type": "DT_FLOAT"}}}, {"name": "MobilenetV1/MobilenetV1/Conv2d_11_depthwise/BatchNorm/batchnorm/add_1/conv", "op": "DepthwiseConv2dNative", "input": ["MobilenetV1/MobilenetV1/Conv2d_10_pointwise/Relu6", "MobilenetV1/Conv2d_11_depthwise/depthwise_weights"], "attr": {"strides": {"list": {"i": ["1", "1", "1", "1"]}}, "data_format": {"s": "TkhXQw=="}, "padding": {"s": "U0FNRQ=="}, "dilations": {"list": {"i": ["2", "2", "1", "1"]}}, "T": {"type": "DT_FLOAT"}}}, {"name": "MobilenetV1/MobilenetV1/Conv2d_11_depthwise/BatchNorm/batchnorm/add_1", "op": "BiasAdd", "input": ["MobilenetV1/MobilenetV1/Conv2d_11_depthwise/BatchNorm/batchnorm/add_1/conv", "MobilenetV1/MobilenetV1/Conv2d_11_depthwise/depthwise_bias"], "attr": {"T": {"type": "DT_FLOAT"}, "data_format": {"s": "TkhXQw=="}}}, {"name": "MobilenetV1/MobilenetV1/Conv2d_11_depthwise/Relu6", "op": "Relu6", "input": ["MobilenetV1/MobilenetV1/Conv2d_11_depthwise/BatchNorm/batchnorm/add_1"], "attr": {"T": {"type": "DT_FLOAT"}}}, {"name": "MobilenetV1/MobilenetV1/Conv2d_11_pointwise/BatchNorm/batchnorm/add_1/conv", "op": "Conv2D", "input": ["MobilenetV1/MobilenetV1/Conv2d_11_depthwise/Relu6", "MobilenetV1/Conv2d_11_pointwise/weights"], "attr": {"dilations": {"list": {"i": ["1", "1", "1", "1"]}}, "T": {"type": "DT_FLOAT"}, "data_format": {"s": "TkhXQw=="}, "strides": {"list": {"i": ["1", "1", "1", "1"]}}, "explicit_paddings": {"list": {}}, "use_cudnn_on_gpu": {"b": true}, "padding": {"s": "U0FNRQ=="}}}, {"name": "MobilenetV1/MobilenetV1/Conv2d_11_pointwise/BatchNorm/batchnorm/add_1", "op": "BiasAdd", "input": ["MobilenetV1/MobilenetV1/Conv2d_11_pointwise/BatchNorm/batchnorm/add_1/conv", "MobilenetV1/MobilenetV1/Conv2d_11_pointwise/Conv2D_bias"], "attr": {"data_format": {"s": "TkhXQw=="}, "T": {"type": "DT_FLOAT"}}}, {"name": "MobilenetV1/MobilenetV1/Conv2d_11_pointwise/Relu6", "op": "Relu6", "input": ["MobilenetV1/MobilenetV1/Conv2d_11_pointwise/BatchNorm/batchnorm/add_1"], "attr": {"T": {"type": "DT_FLOAT"}}}, {"name": "MobilenetV1/MobilenetV1/Conv2d_12_depthwise/BatchNorm/batchnorm/add_1/conv", "op": "DepthwiseConv2dNative", "input": ["MobilenetV1/MobilenetV1/Conv2d_11_pointwise/Relu6", "MobilenetV1/Conv2d_12_depthwise/depthwise_weights"], "attr": {"strides": {"list": {"i": ["1", "1", "1", "1"]}}, "data_format": {"s": "TkhXQw=="}, "dilations": {"list": {"i": ["2", "2", "1", "1"]}}, "padding": {"s": "U0FNRQ=="}, "T": {"type": "DT_FLOAT"}}}, {"name": "MobilenetV1/MobilenetV1/Conv2d_12_depthwise/BatchNorm/batchnorm/add_1", "op": "BiasAdd", "input": ["MobilenetV1/MobilenetV1/Conv2d_12_depthwise/BatchNorm/batchnorm/add_1/conv", "MobilenetV1/MobilenetV1/Conv2d_12_depthwise/depthwise_bias"], "attr": {"T": {"type": "DT_FLOAT"}, "data_format": {"s": "TkhXQw=="}}}, {"name": "MobilenetV1/MobilenetV1/Conv2d_12_depthwise/Relu6", "op": "Relu6", "input": ["MobilenetV1/MobilenetV1/Conv2d_12_depthwise/BatchNorm/batchnorm/add_1"], "attr": {"T": {"type": "DT_FLOAT"}}}, {"name": "MobilenetV1/MobilenetV1/Conv2d_12_pointwise/BatchNorm/batchnorm/add_1/conv", "op": "Conv2D", "input": ["MobilenetV1/MobilenetV1/Conv2d_12_depthwise/Relu6", "MobilenetV1/Conv2d_12_pointwise/weights"], "attr": {"dilations": {"list": {"i": ["1", "1", "1", "1"]}}, "T": {"type": "DT_FLOAT"}, "data_format": {"s": "TkhXQw=="}, "strides": {"list": {"i": ["1", "1", "1", "1"]}}, "use_cudnn_on_gpu": {"b": true}, "explicit_paddings": {"list": {}}, "padding": {"s": "U0FNRQ=="}}}, {"name": "MobilenetV1/MobilenetV1/Conv2d_12_pointwise/BatchNorm/batchnorm/add_1", "op": "BiasAdd", "input": ["MobilenetV1/MobilenetV1/Conv2d_12_pointwise/BatchNorm/batchnorm/add_1/conv", "MobilenetV1/MobilenetV1/Conv2d_12_pointwise/Conv2D_bias"], "attr": {"T": {"type": "DT_FLOAT"}, "data_format": {"s": "TkhXQw=="}}}, {"name": "MobilenetV1/MobilenetV1/Conv2d_12_pointwise/Relu6", "op": "Relu6", "input": ["MobilenetV1/MobilenetV1/Conv2d_12_pointwise/BatchNorm/batchnorm/add_1"], "attr": {"T": {"type": "DT_FLOAT"}}}, {"name": "MobilenetV1/MobilenetV1/Conv2d_13_depthwise/BatchNorm/batchnorm/add_1/conv", "op": "DepthwiseConv2dNative", "input": ["MobilenetV1/MobilenetV1/Conv2d_12_pointwise/Relu6", "MobilenetV1/Conv2d_13_depthwise/depthwise_weights"], "attr": {"padding": {"s": "U0FNRQ=="}, "dilations": {"list": {"i": ["2", "2", "1", "1"]}}, "T": {"type": "DT_FLOAT"}, "data_format": {"s": "TkhXQw=="}, "strides": {"list": {"i": ["1", "1", "1", "1"]}}}}, {"name": "MobilenetV1/MobilenetV1/Conv2d_13_depthwise/BatchNorm/batchnorm/add_1", "op": "BiasAdd", "input": ["MobilenetV1/MobilenetV1/Conv2d_13_depthwise/BatchNorm/batchnorm/add_1/conv", "MobilenetV1/MobilenetV1/Conv2d_13_depthwise/depthwise_bias"], "attr": {"data_format": {"s": "TkhXQw=="}, "T": {"type": "DT_FLOAT"}}}, {"name": "MobilenetV1/MobilenetV1/Conv2d_13_depthwise/Relu6", "op": "Relu6", "input": ["MobilenetV1/MobilenetV1/Conv2d_13_depthwise/BatchNorm/batchnorm/add_1"], "attr": {"T": {"type": "DT_FLOAT"}}}, {"name": "MobilenetV1/MobilenetV1/Conv2d_13_pointwise/BatchNorm/batchnorm/add_1/conv", "op": "Conv2D", "input": ["MobilenetV1/MobilenetV1/Conv2d_13_depthwise/Relu6", "MobilenetV1/Conv2d_13_pointwise/weights"], "attr": {"padding": {"s": "U0FNRQ=="}, "dilations": {"list": {"i": ["1", "1", "1", "1"]}}, "T": {"type": "DT_FLOAT"}, "data_format": {"s": "TkhXQw=="}, "strides": {"list": {"i": ["1", "1", "1", "1"]}}, "use_cudnn_on_gpu": {"b": true}, "explicit_paddings": {"list": {}}}}, {"name": "MobilenetV1/MobilenetV1/Conv2d_13_pointwise/BatchNorm/batchnorm/add_1", "op": "BiasAdd", "input": ["MobilenetV1/MobilenetV1/Conv2d_13_pointwise/BatchNorm/batchnorm/add_1/conv", "MobilenetV1/MobilenetV1/Conv2d_13_pointwise/Conv2D_bias"], "attr": {"T": {"type": "DT_FLOAT"}, "data_format": {"s": "TkhXQw=="}}}, {"name": "MobilenetV1/MobilenetV1/Conv2d_13_pointwise/Relu6", "op": "Relu6", "input": ["MobilenetV1/MobilenetV1/Conv2d_13_pointwise/BatchNorm/batchnorm/add_1"], "attr": {"T": {"type": "DT_FLOAT"}}}, {"name": "MobilenetV1/offset_2/BiasAdd/conv", "op": "Conv2D", "input": ["MobilenetV1/MobilenetV1/Conv2d_13_pointwise/Relu6", "MobilenetV1/offset_2/weights"], "attr": {"dilations": {"list": {"i": ["1", "1", "1", "1"]}}, "T": {"type": "DT_FLOAT"}, "data_format": {"s": "TkhXQw=="}, "strides": {"list": {"i": ["1", "1", "1", "1"]}}, "use_cudnn_on_gpu": {"b": true}, "explicit_paddings": {"list": {}}, "padding": {"s": "U0FNRQ=="}}}, {"name": "MobilenetV1/heatmap_2/BiasAdd/conv", "op": "Conv2D", "input": ["MobilenetV1/MobilenetV1/Conv2d_13_pointwise/Relu6", "MobilenetV1/heatmap_2/weights"], "attr": {"dilations": {"list": {"i": ["1", "1", "1", "1"]}}, "T": {"type": "DT_FLOAT"}, "strides": {"list": {"i": ["1", "1", "1", "1"]}}, "data_format": {"s": "TkhXQw=="}, "explicit_paddings": {"list": {}}, "use_cudnn_on_gpu": {"b": true}, "padding": {"s": "U0FNRQ=="}}}, {"name": "MobilenetV1/displacement_fwd_2/BiasAdd/conv", "op": "Conv2D", "input": ["MobilenetV1/MobilenetV1/Conv2d_13_pointwise/Relu6", "MobilenetV1/displacement_fwd_2/weights"], "attr": {"dilations": {"list": {"i": ["1", "1", "1", "1"]}}, "T": {"type": "DT_FLOAT"}, "strides": {"list": {"i": ["1", "1", "1", "1"]}}, "data_format": {"s": "TkhXQw=="}, "use_cudnn_on_gpu": {"b": true}, "explicit_paddings": {"list": {}}, "padding": {"s": "U0FNRQ=="}}}, {"name": "MobilenetV1/displacement_bwd_2/BiasAdd/conv", "op": "Conv2D", "input": ["MobilenetV1/MobilenetV1/Conv2d_13_pointwise/Relu6", "MobilenetV1/displacement_bwd_2/weights"], "attr": {"dilations": {"list": {"i": ["1", "1", "1", "1"]}}, "T": {"type": "DT_FLOAT"}, "strides": {"list": {"i": ["1", "1", "1", "1"]}}, "data_format": {"s": "TkhXQw=="}, "explicit_paddings": {"list": {}}, "use_cudnn_on_gpu": {"b": true}, "padding": {"s": "U0FNRQ=="}}}, {"name": "MobilenetV1/offset_2/BiasAdd", "op": "BiasAdd", "input": ["MobilenetV1/offset_2/BiasAdd/conv", "MobilenetV1/offset_2/Conv2D_bias"], "attr": {"data_format": {"s": "TkhXQw=="}, "T": {"type": "DT_FLOAT"}}}, {"name": "MobilenetV1/heatmap_2/BiasAdd", "op": "BiasAdd", "input": ["MobilenetV1/heatmap_2/BiasAdd/conv", "MobilenetV1/heatmap_2/Conv2D_bias"], "attr": {"T": {"type": "DT_FLOAT"}, "data_format": {"s": "TkhXQw=="}}}, {"name": "MobilenetV1/displacement_fwd_2/BiasAdd", "op": "BiasAdd", "input": ["MobilenetV1/displacement_fwd_2/BiasAdd/conv", "MobilenetV1/displacement_fwd_2/Conv2D_bias"], "attr": {"T": {"type": "DT_FLOAT"}, "data_format": {"s": "TkhXQw=="}}}, {"name": "MobilenetV1/displacement_bwd_2/BiasAdd", "op": "BiasAdd", "input": ["MobilenetV1/displacement_bwd_2/BiasAdd/conv", "MobilenetV1/displacement_bwd_2/Conv2D_bias"], "attr": {"T": {"type": "DT_FLOAT"}, "data_format": {"s": "TkhXQw=="}}}], "library": {}, "versions": {"producer": 54}}, "weightsManifest": [{"paths": ["group1-shard1of1.bin"], "weights": [{"name": "MobilenetV1/offset_2/Conv2D_bias", "shape": [34], "dtype": "float32", "quantization": {"min": -0.39980359989054065, "scale": 0.0028155183090883143, "dtype": "uint8"}}, {"name": "MobilenetV1/offset_2/weights", "shape": [1, 1, 256, 34], "dtype": "float32", "quantization": {"min": -1.083155416507347, "scale": 0.008528782807144464, "dtype": "uint8"}}, {"name": "MobilenetV1/MobilenetV1/Conv2d_13_pointwise/Conv2D_bias", "shape": [256], "dtype": "float32", "quantization": {"min": -4.587992518555884, "scale": 0.04170902289596259, "dtype": "uint8"}}, {"name": "MobilenetV1/Conv2d_13_pointwise/weights", "shape": [1, 1, 256, 256], "dtype": "float32", "quantization": {"min": -1.9312182594748104, "scale": 0.014855525072883157, "dtype": "uint8"}}, {"name": "MobilenetV1/MobilenetV1/Conv2d_13_depthwise/depthwise_bias", "shape": [256], "dtype": "float32", "quantization": {"min": -1.82800674718969, "scale": 0.015623989292219573, "dtype": "uint8"}}, {"name": "MobilenetV1/Conv2d_13_depthwise/depthwise_weights", "shape": [3, 3, 256, 1], "dtype": "float32", "quantization": {"min": -2.254090690612793, "scale": 0.022098928339341108, "dtype": "uint8"}}, {"name": "MobilenetV1/MobilenetV1/Conv2d_12_pointwise/Conv2D_bias", "shape": [256], "dtype": "float32", "quantization": {"min": -1.3239402490503647, "scale": 0.011927389631084367, "dtype": "uint8"}}, {"name": "MobilenetV1/Conv2d_12_pointwise/weights", "shape": [1, 1, 256, 256], "dtype": "float32", "quantization": {"min": -0.678847141826854, "scale": 0.005474573724410113, "dtype": "uint8"}}, {"name": "MobilenetV1/MobilenetV1/Conv2d_12_depthwise/depthwise_bias", "shape": [256], "dtype": "float32", "quantization": {"min": -3.7327231107973584, "scale": 0.0352143689697864, "dtype": "uint8"}}, {"name": "MobilenetV1/Conv2d_12_depthwise/depthwise_weights", "shape": [3, 3, 256, 1], "dtype": "float32", "quantization": {"min": -1.7200339719360949, "scale": 0.014098639114230286, "dtype": "uint8"}}, {"name": "MobilenetV1/MobilenetV1/Conv2d_11_pointwise/Conv2D_bias", "shape": [256], "dtype": "float32", "quantization": {"min": -7.954057194204891, "scale": 0.05805881163653205, "dtype": "uint8"}}, {"name": "MobilenetV1/Conv2d_11_pointwise/weights", "shape": [1, 1, 256, 256], "dtype": "float32", "quantization": {"min": -0.7924440662066142, "scale": 0.006659193833669027, "dtype": "uint8"}}, {"name": "MobilenetV1/MobilenetV1/Conv2d_11_depthwise/depthwise_bias", "shape": [256], "dtype": "float32", "quantization": {"min": -8.919498365065632, "scale": 0.07251624687045229, "dtype": "uint8"}}, {"name": "MobilenetV1/Conv2d_11_depthwise/depthwise_weights", "shape": [3, 3, 256, 1], "dtype": "float32", "quantization": {"min": -2.033785344105141, "scale": 0.019007339664534027, "dtype": "uint8"}}, {"name": "MobilenetV1/MobilenetV1/Conv2d_10_pointwise/Conv2D_bias", "shape": [256], "dtype": "float32", "quantization": {"min": -8.008233107772528, "scale": 0.06618374469233494, "dtype": "uint8"}}, {"name": "MobilenetV1/Conv2d_10_pointwise/weights", "shape": [1, 1, 256, 256], "dtype": "float32", "quantization": {"min": -1.0486688800886566, "scale": 0.010486688800886566, "dtype": "uint8"}}, {"name": "MobilenetV1/MobilenetV1/Conv2d_10_depthwise/depthwise_bias", "shape": [256], "dtype": "float32", "quantization": {"min": -12.614988981508743, "scale": 0.08354297338747511, "dtype": "uint8"}}, {"name": "MobilenetV1/Conv2d_10_depthwise/depthwise_weights", "shape": [3, 3, 256, 1], "dtype": "float32", "quantization": {"min": -2.4783365586224724, "scale": 0.02065280465518727, "dtype": "uint8"}}, {"name": "MobilenetV1/MobilenetV1/Conv2d_9_pointwise/Conv2D_bias", "shape": [256], "dtype": "float32", "quantization": {"min": -10.025817646699794, "scale": 0.06683878431133196, "dtype": "uint8"}}, {"name": "MobilenetV1/Conv2d_9_pointwise/weights", "shape": [1, 1, 256, 256], "dtype": "float32", "quantization": {"min": -1.1920566371842927, "scale": 0.009169666439879175, "dtype": "uint8"}}, {"name": "MobilenetV1/MobilenetV1/Conv2d_9_depthwise/depthwise_bias", "shape": [256], "dtype": "float32", "quantization": {"min": -12.23923573587455, "scale": 0.09637193492814607, "dtype": "uint8"}}, {"name": "MobilenetV1/Conv2d_9_depthwise/depthwise_weights", "shape": [3, 3, 256, 1], "dtype": "float32", "quantization": {"min": -3.097768222584444, "scale": 0.021512279323503084, "dtype": "uint8"}}, {"name": "MobilenetV1/MobilenetV1/Conv2d_8_pointwise/Conv2D_bias", "shape": [256], "dtype": "float32", "quantization": {"min": -7.924881615358241, "scale": 0.07139532986809226, "dtype": "uint8"}}, {"name": "MobilenetV1/Conv2d_8_pointwise/weights", "shape": [1, 1, 256, 256], "dtype": "float32", "quantization": {"min": -1.4320821107602586, "scale": 0.010229157934001847, "dtype": "uint8"}}, {"name": "MobilenetV1/MobilenetV1/Conv2d_8_depthwise/depthwise_bias", "shape": [256], "dtype": "float32", "quantization": {"min": -10.252732912699383, "scale": 0.0737606684366862, "dtype": "uint8"}}, {"name": "MobilenetV1/Conv2d_8_depthwise/depthwise_weights", "shape": [3, 3, 256, 1], "dtype": "float32", "quantization": {"min": -5.060327520557478, "scale": 0.040482620164459825, "dtype": "uint8"}}, {"name": "MobilenetV1/MobilenetV1/Conv2d_7_pointwise/Conv2D_bias", "shape": [256], "dtype": "float32", "quantization": {"min": -5.83432446087108, "scale": 0.04137818766575234, "dtype": "uint8"}}, {"name": "MobilenetV1/Conv2d_7_pointwise/weights", "shape": [1, 1, 256, 256], "dtype": "float32", "quantization": {"min": -1.0404303894323461, "scale": 0.00707775775124045, "dtype": "uint8"}}, {"name": "MobilenetV1/MobilenetV1/Conv2d_7_depthwise/depthwise_bias", "shape": [256], "dtype": "float32", "quantization": {"min": -8.312045347924325, "scale": 0.06869458965226716, "dtype": "uint8"}}, {"name": "MobilenetV1/Conv2d_7_depthwise/depthwise_weights", "shape": [3, 3, 256, 1], "dtype": "float32", "quantization": {"min": -15.563921831168381, "scale": 0.14278827368044386, "dtype": "uint8"}}, {"name": "MobilenetV1/MobilenetV1/Conv2d_6_pointwise/Conv2D_bias", "shape": [256], "dtype": "float32", "quantization": {"min": -23.968221836464078, "scale": 0.1619474448409735, "dtype": "uint8"}}, {"name": "MobilenetV1/Conv2d_6_pointwise/weights", "shape": [1, 1, 128, 256], "dtype": "float32", "quantization": {"min": -2.5558969478981166, "scale": 0.019510663724413103, "dtype": "uint8"}}, {"name": "MobilenetV1/MobilenetV1/Conv2d_6_depthwise/depthwise_bias", "shape": [128], "dtype": "float32", "quantization": {"min": -0.8863039746003992, "scale": 0.06817722881541532, "dtype": "uint8"}}, {"name": "MobilenetV1/Conv2d_6_depthwise/depthwise_weights", "shape": [3, 3, 128, 1], "dtype": "float32", "quantization": {"min": -1.3319320847006404, "scale": 0.01345385944142061, "dtype": "uint8"}}, {"name": "MobilenetV1/MobilenetV1/Conv2d_5_pointwise/Conv2D_bias", "shape": [128], "dtype": "float32", "quantization": {"min": -18.76255915024701, "scale": 0.11950674617991727, "dtype": "uint8"}}, {"name": "MobilenetV1/Conv2d_5_pointwise/weights", "shape": [1, 1, 128, 128], "dtype": "float32", "quantization": {"min": -1.556510088490505, "scale": 0.013534870334700043, "dtype": "uint8"}}, {"name": "MobilenetV1/MobilenetV1/Conv2d_5_depthwise/depthwise_bias", "shape": [128], "dtype": "float32", "quantization": {"min": -5.290422439575195, "scale": 0.07149219512939453, "dtype": "uint8"}}, {"name": "MobilenetV1/Conv2d_5_depthwise/depthwise_weights", "shape": [3, 3, 128, 1], "dtype": "float32", "quantization": {"min": -6.597649435903512, "scale": 0.05591228335511451, "dtype": "uint8"}}, {"name": "MobilenetV1/MobilenetV1/Conv2d_4_pointwise/Conv2D_bias", "shape": [128], "dtype": "float32", "quantization": {"min": -9.360769103555118, "scale": 0.06832678177777458, "dtype": "uint8"}}, {"name": "MobilenetV1/Conv2d_4_pointwise/weights", "shape": [1, 1, 64, 128], "dtype": "float32", "quantization": {"min": -1.8364057073406144, "scale": 0.012408146671220368, "dtype": "uint8"}}, {"name": "MobilenetV1/MobilenetV1/Conv2d_4_depthwise/depthwise_bias", "shape": [64], "dtype": "float32", "quantization": {"min": -4.182952405892166, "scale": 0.0486389814638624, "dtype": "uint8"}}, {"name": "MobilenetV1/Conv2d_4_depthwise/depthwise_weights", "shape": [3, 3, 64, 1], "dtype": "float32", "quantization": {"min": -1.8360175020554486, "scale": 0.013909223500420065, "dtype": "uint8"}}, {"name": "MobilenetV1/MobilenetV1/Conv2d_3_pointwise/Conv2D_bias", "shape": [64], "dtype": "float32", "quantization": {"min": -14.257789219126982, "scale": 0.19010385625502643, "dtype": "uint8"}}, {"name": "MobilenetV1/Conv2d_3_pointwise/weights", "shape": [1, 1, 64, 64], "dtype": "float32", "quantization": {"min": -2.398753917918486, "scale": 0.0545171344981474, "dtype": "uint8"}}, {"name": "MobilenetV1/MobilenetV1/Conv2d_3_depthwise/depthwise_bias", "shape": [64], "dtype": "float32", "quantization": {"min": -3.7247029098809934, "scale": 0.10642008313945696, "dtype": "uint8"}}, {"name": "MobilenetV1/Conv2d_3_depthwise/depthwise_weights", "shape": [3, 3, 64, 1], "dtype": "float32", "quantization": {"min": -23.666522216796874, "scale": 0.34803709142348344, "dtype": "uint8"}}, {"name": "MobilenetV1/MobilenetV1/Conv2d_2_pointwise/Conv2D_bias", "shape": [64], "dtype": "float32", "quantization": {"min": -24.3216739654541, "scale": 0.25073890686035155, "dtype": "uint8"}}, {"name": "MobilenetV1/Conv2d_2_pointwise/weights", "shape": [1, 1, 32, 64], "dtype": "float32", "quantization": {"min": -4.371759470771341, "scale": 0.034974075766170724, "dtype": "uint8"}}, {"name": "MobilenetV1/MobilenetV1/Conv2d_2_depthwise/depthwise_bias", "shape": [32], "dtype": "float32", "quantization": {"min": -1.5665479575886445, "scale": 0.047471150229958924, "dtype": "uint8"}}, {"name": "MobilenetV1/Conv2d_2_depthwise/depthwise_weights", "shape": [3, 3, 32, 1], "dtype": "float32", "quantization": {"min": -2.2615600053001854, "scale": 0.01675229633555693, "dtype": "uint8"}}, {"name": "MobilenetV1/MobilenetV1/Conv2d_1_pointwise/Conv2D_bias", "shape": [32], "dtype": "float32", "quantization": {"min": -9.388188433179668, "scale": 0.1322280061011221, "dtype": "uint8"}}, {"name": "MobilenetV1/Conv2d_1_pointwise/weights", "shape": [1, 1, 16, 32], "dtype": "float32", "quantization": {"min": -2.776648998260498, "scale": 0.027222049002553903, "dtype": "uint8"}}, {"name": "MobilenetV1/MobilenetV1/Conv2d_1_depthwise/depthwise_bias", "shape": [16], "dtype": "float32", "quantization": {"min": -0.969051913654103, "scale": 0.02936520950466979, "dtype": "uint8"}}, {"name": "MobilenetV1/Conv2d_1_depthwise/depthwise_weights", "shape": [3, 3, 16, 1], "dtype": "float32", "quantization": {"min": -46.73184491325827, "scale": 0.5310436921961167, "dtype": "uint8"}}, {"name": "MobilenetV1/MobilenetV1/Conv2d_0/Conv2D_bias", "shape": [16], "dtype": "float32", "quantization": {"min": -3.7270922735625622, "scale": 0.030549936668545594, "dtype": "uint8"}}, {"name": "MobilenetV1/Conv2d_0/weights", "shape": [3, 3, 3, 16], "dtype": "float32", "quantization": {"min": -2.738071647344851, "scale": 0.028821806814156328, "dtype": "uint8"}}, {"name": "MobilenetV1/heatmap_2/Conv2D_bias", "shape": [17], "dtype": "float32", "quantization": {"min": -1.9069883823394775, "scale": 0.001213240623474121, "dtype": "uint8"}}, {"name": "MobilenetV1/heatmap_2/weights", "shape": [1, 1, 256, 17], "dtype": "float32", "quantization": {"min": -0.43392545686048617, "scale": 0.0029122513883254107, "dtype": "uint8"}}, {"name": "MobilenetV1/displacement_fwd_2/Conv2D_bias", "shape": [32], "dtype": "float32", "quantization": {"min": -0.26905106095706716, "scale": 0.007687173170201919, "dtype": "uint8"}}, {"name": "MobilenetV1/displacement_fwd_2/weights", "shape": [1, 1, 256, 32], "dtype": "float32", "quantization": {"min": -0.6288893306956572, "scale": 0.005823049358293122, "dtype": "uint8"}}, {"name": "MobilenetV1/displacement_bwd_2/Conv2D_bias", "shape": [32], "dtype": "float32", "quantization": {"min": -2.6194405976463764, "scale": 0.012903648264267865, "dtype": "uint8"}}, {"name": "MobilenetV1/displacement_bwd_2/weights", "shape": [1, 1, 256, 32], "dtype": "float32", "quantization": {"min": -0.7569436234586379, "scale": 0.005149276350058761, "dtype": "uint8"}}]}]}