{"modelTopology":{"class_name":"Sequential","config":[{"class_name":"Dense","config":{"units":16,"activation":"relu","use_bias":true,"kernel_initializer":{"class_name":"VarianceScaling","config":{"scale":1,"mode":"fan_avg","distribution":"normal","seed":null}},"bias_initializer":{"class_name":"Zeros","config":{}},"kernel_regularizer":null,"bias_regularizer":null,"activity_regularizer":null,"kernel_constraint":null,"bias_constraint":null,"name":"dense_Dense7","trainable":true,"batch_input_shape":[null,21],"dtype":"float32"}},{"class_name":"Dense","config":{"units":16,"activation":"relu","use_bias":true,"kernel_initializer":{"class_name":"VarianceScaling","config":{"scale":1,"mode":"fan_avg","distribution":"normal","seed":null}},"bias_initializer":{"class_name":"Zeros","config":{}},"kernel_regularizer":null,"bias_regularizer":null,"activity_regularizer":null,"kernel_constraint":null,"bias_constraint":null,"name":"dense_Dense8","trainable":true}},{"class_name":"Dense","config":{"units":16,"activation":"relu","use_bias":true,"kernel_initializer":{"class_name":"VarianceScaling","config":{"scale":1,"mode":"fan_avg","distribution":"normal","seed":null}},"bias_initializer":{"class_name":"Zeros","config":{}},"kernel_regularizer":null,"bias_regularizer":null,"activity_regularizer":null,"kernel_constraint":null,"bias_constraint":null,"name":"dense_Dense9","trainable":true}},{"class_name":"Dense","config":{"units":16,"activation":"relu","use_bias":true,"kernel_initializer":{"class_name":"VarianceScaling","config":{"scale":1,"mode":"fan_avg","distribution":"normal","seed":null}},"bias_initializer":{"class_name":"Zeros","config":{}},"kernel_regularizer":null,"bias_regularizer":null,"activity_regularizer":null,"kernel_constraint":null,"bias_constraint":null,"name":"dense_Dense10","trainable":true}},{"class_name":"Dense","config":{"units":16,"activation":"relu","use_bias":true,"kernel_initializer":{"class_name":"VarianceScaling","config":{"scale":1,"mode":"fan_avg","distribution":"normal","seed":null}},"bias_initializer":{"class_name":"Zeros","config":{}},"kernel_regularizer":null,"bias_regularizer":null,"activity_regularizer":null,"kernel_constraint":null,"bias_constraint":null,"name":"dense_Dense11","trainable":true}},{"class_name":"Dense","config":{"units":16,"activation":"relu","use_bias":true,"kernel_initializer":{"class_name":"VarianceScaling","config":{"scale":1,"mode":"fan_avg","distribution":"normal","seed":null}},"bias_initializer":{"class_name":"Zeros","config":{}},"kernel_regularizer":null,"bias_regularizer":null,"activity_regularizer":null,"kernel_constraint":null,"bias_constraint":null,"name":"dense_Dense12","trainable":true}},{"class_name":"Dense","config":{"units":1,"activation":"linear","use_bias":false,"kernel_initializer":{"class_name":"VarianceScaling","config":{"scale":1,"mode":"fan_avg","distribution":"normal","seed":null}},"bias_initializer":{"class_name":"Zeros","config":{}},"kernel_regularizer":null,"bias_regularizer":null,"activity_regularizer":null,"kernel_constraint":null,"bias_constraint":null,"name":"dense_Dense13","trainable":true}}],"keras_version":"tfjs-layers 0.8.4","backend":"tensor_flow.js"},"weightsManifest":[{"paths":["./Training with all Swiss.weights.bin"],"weights":[{"name":"dense_Dense7/kernel","shape":[21,16],"dtype":"float32"},{"name":"dense_Dense7/bias","shape":[16],"dtype":"float32"},{"name":"dense_Dense8/kernel","shape":[16,16],"dtype":"float32"},{"name":"dense_Dense8/bias","shape":[16],"dtype":"float32"},{"name":"dense_Dense9/kernel","shape":[16,16],"dtype":"float32"},{"name":"dense_Dense9/bias","shape":[16],"dtype":"float32"},{"name":"dense_Dense10/kernel","shape":[16,16],"dtype":"float32"},{"name":"dense_Dense10/bias","shape":[16],"dtype":"float32"},{"name":"dense_Dense11/kernel","shape":[16,16],"dtype":"float32"},{"name":"dense_Dense11/bias","shape":[16],"dtype":"float32"},{"name":"dense_Dense12/kernel","shape":[16,16],"dtype":"float32"},{"name":"dense_Dense12/bias","shape":[16],"dtype":"float32"},{"name":"dense_Dense13/kernel","shape":[16,1],"dtype":"float32"}]}]}