{"modelTopology":{"class_name":"Sequential","config":{"name":"14-01-20a","layers":[{"class_name":"Dense","config":{"units":1280,"activation":"relu","use_bias":true,"kernel_initializer":{"class_name":"VarianceScaling","config":{"scale":1,"mode":"fan_in","distribution":"normal","seed":null}},"bias_initializer":{"class_name":"Zeros","config":{}},"kernel_regularizer":{"class_name":"L1L2","config":{"l1":0,"l2":0.0005}},"bias_regularizer":null,"activity_regularizer":null,"kernel_constraint":null,"bias_constraint":null,"name":"dense_Dense7","trainable":true,"batch_input_shape":[null,1280],"dtype":"float32"}},{"class_name":"Dropout","config":{"rate":0.5,"noise_shape":null,"seed":null,"name":"dropout_Dropout5","trainable":true}},{"class_name":"Dense","config":{"units":64,"activation":"relu","use_bias":true,"kernel_initializer":{"class_name":"VarianceScaling","config":{"scale":1,"mode":"fan_in","distribution":"normal","seed":null}},"bias_initializer":{"class_name":"Zeros","config":{}},"kernel_regularizer":{"class_name":"L1L2","config":{"l1":0,"l2":0.0005}},"bias_regularizer":null,"activity_regularizer":null,"kernel_constraint":null,"bias_constraint":null,"name":"dense_Dense8","trainable":true}},{"class_name":"Dropout","config":{"rate":0.5,"noise_shape":null,"seed":null,"name":"dropout_Dropout6","trainable":true}},{"class_name":"Dense","config":{"units":3,"activation":"softmax","use_bias":false,"kernel_initializer":{"class_name":"VarianceScaling","config":{"scale":1,"mode":"fan_avg","distribution":"normal","seed":null}},"bias_initializer":{"class_name":"Zeros","config":{}},"kernel_regularizer":null,"bias_regularizer":null,"activity_regularizer":null,"kernel_constraint":null,"bias_constraint":null,"name":"dense_Dense9","trainable":true}}]},"keras_version":"tfjs-layers 1.5.1","backend":"tensor_flow.js"},"format":"layers-model","generatedBy":"TensorFlow.js tfjs-layers v1.5.1","convertedBy":null,"weightsManifest":[{"paths":["./14-01-20a.weights.bin"],"weights":[{"name":"dense_Dense7/kernel","shape":[1280,1280],"dtype":"float32"},{"name":"dense_Dense7/bias","shape":[1280],"dtype":"float32"},{"name":"dense_Dense8/kernel","shape":[1280,64],"dtype":"float32"},{"name":"dense_Dense8/bias","shape":[64],"dtype":"float32"},{"name":"dense_Dense9/kernel","shape":[64,3],"dtype":"float32"}]}]}